models_cartpole/dqn_agent.pt (torch, 654679 bytes, 6 tensors)

fc1.weight f4 [400, 4]
-0.3093078 0.04062237 -0.34549335 -0.4255427 0.5178097 -0.36446717 -0.68546844 -0.38742378
-0.50028473 0.20631832 0.7089384 -0.09946268 -0.18383394 -0.39389995 0.25908044 0.3247345
0.042503763 -0.16879576 -0.42703444 -0.2643703 -0.46713352 0.15227084 0.342287 0.2143006
-0.41794562 0.18553582 -0.4064679 0.14627776 -0.01149115 0.4927247 0.256903 0.29468113
0.03121368 0.055662405 0.190399 0.19564001 0.13000134 -0.5165387 0.09223939 -0.1933919
0.14310595 -0.49107507 0.1918502 0.15918353 0.33389828 0.056487203 -0.19859774 -0.27160758
-0.0084827095 -0.39862105 -0.38228217 -0.3261193 0.41174158 0.2011683 0.17239793 0.16496193
0.43515658 -0.26160076 0.6865752 0.3435833 0.39650252 0.4614213 -0.09306463 0.023054687
0.3926269 0.47335148 0.5472914 0.4414814 -0.4967787 0.45191517 -0.23517507 0.08849458
-0.09786557 -0.31512982 -0.6654835 -0.30470574 -0.08363563 -0.056200605 0.5901846 0.20310448
0.062185403 0.12766695 -0.3638157 -0.18788268 0.250424 -0.16165932 0.22477512 -0.03690834
0.09969937 0.16353218 -0.44554135 -0.30835548 -0.13381615 -0.13815443 -0.5983107 -0.4148072
-0.009475025 0.050471578 -0.12960365 0.45976183 -0.13793528 0.3070376 -0.24204881 -0.34742174
0.29192638 -0.285729 -0.68403727 -0.44892552 0.08346132 0.37084743 0.2802007 0.4695975
0.30259937 0.02143833 -0.28376755 -0.29439947 -0.38943937 -0.24966936 0.46676135 0.42777094
-0.35956004 -0.2623213 0.33679315 -0.1843958 0.48375234 -0.36079547 0.24845518 -0.48779827
0.4524477 -0.34421042 0.36233348 -0.06203467 0.06768174 -0.3009637 0.604588 0.37313685
0.011806096 -0.43257296 -0.5793143 -0.07344518 -0.322921 -0.30654758 -0.16697729 0.135511
0.2846703 -0.16538417 0.32353854 -0.13016734 -0.24889342 0.2591227 -0.63765705 -0.40594152
0.103726394 0.29898673 0.61466014 -0.012609671 -0.3169619 0.06278162 -0.6953408 -0.5282291
0.14172928 0.10354486 0.3144641 0.4851938 0.30263004 0.3511404 -0.47464487 -0.05440649
0.21033373 -0.07865636 -0.0018672424 0.4481143 0.35401148 0.0684396 0.040682793 -0.54407734
-0.49827355 0.35644156 0.4179975 0.38543758 -0.21090038 -0.4736021 -0.5212725 -0.39600974
0.37176576 -0.25542983 -0.0069408086 0.46554732 0.08896813 0.16619103 0.53238136 -0.36584818
-0.16718435 0.4160814 0.45615292 -0.23186998 0.056101274 -0.28632203 -0.15366527 0.037343353
-0.12932299 0.13282764 0.5310747 0.4375689 0.19383837 0.307742 0.36487523 -0.15364793
-0.29239509 -0.30583605 0.40639186 -0.18425244 -0.380898 0.15111801 0.13306823 0.19589631
0.36254135 -0.05189394 0.44863656 0.07311044 0.026944952 0.21591045 0.28069335 0.43154532
-0.5932101 0.06291355 0.033619028 -0.1484085 -0.42083332 0.3102227 0.50142497 0.46909243
-0.3155456 0.052349985 0.69456977 -0.27351612 -0.51964575 0.092048086 0.023761988 0.21129283
0.061909065 0.18639544 0.3229833 -0.26050034 -0.1482699 0.46586528 0.13097477 0.45723876
0.4848864 0.037980188 0.5485495 -0.24836992 -0.3263697 -0.270729 0.2029918 0.49386084
00000000: 985d 9ebe a463 263d 81e4 b0be bce0 d9be
00000010: 2d8f 043f 719b babe dc7a 2fbf 695c c6be
00000020: a912 00bf 1c45 533e fd7c 353f 17b3 cbbd
00000030: f73e 3cbe 41ad c9be 31a6 843e 9a43 a63e
00000040: 6d18 2e3d ccd8 2cbe 42a4 dabe 8b5b 87be
00000050: 202c efbe e3ec 1b3e 3e40 af3e 9e71 5b3e
00000060: f8fc d5be 1afd 3d3e 901c d0be d6c9 153e
00000070: 6045 3cbc 6946 fc3e ca88 833e 72e0 963e
00000080: d5b3 ff3c 43fe 633d f5f7 423e db55 483e
00000090: 121f 053e e13b 04bf 01e8 bc3d 8708 46be
000000a0: 5e8a 123e 316e fbbe 6174 443e 0201 233e
000000b0: b7f4 aa3e 205f 673d 355d 4bbe 2610 8bbe
000000c0: 10fb 0abc 0f18 ccbe 7dba c3be 1cf9 a6be
000000d0: cbcf d23e 10ff 4d3e 1589 303e c8eb 283e
000000e0: d8cc de3e 89f0 85be 64c3 2f3f 26ea af3e
000000f0: 6102 cb3e 6a3f ec3e ab98 bebd 2fdd bc3c
00000100: 6506 c93e 205b f23e 4a1b 0c3f da09 e23e
00000110: c759 febe 6d61 e73e bcd1 70be a53c b53d
00000120: be6d c8bd b258 a1be 205d 2abf 6402 9cbe
00000130: 2849 abbd 9b32 66bd 5716 173f 9ffa 4f3e
00000140: 1fb6 7e3d 20bb 023e 0d46 babe 5164 40be
00000150: 9337 803e 058a 25be 732b 663e 332d 17bd
00000160: 2f2f cc3d fb74 273e ff1d e4be c5e0 9dbe
00000170: 1a07 09be 5b78 0dbe e42a 19bf 9c61 d4be
00000180: 233d 1bbc 49bb 4e3d d2b6 04be e765 eb3e
00000190: e83e 0dbe 0834 9d3e a5db 77be 43e1 b1be
000001a0: 6077 953e 124b 92be 111d 2fbf 91d9 e5be
000001b0: c5ed aa3d b7df bd3e 7776 8f3e 156f f03e
000001c0: 4eee 9a3e 709f af3c fb49 91be 87bb 96be
000001d0: 9964 c7be 53a9 7fbe 58fb ee3e cb04 db3e
000001e0: 4118 b8be fa4e 86be 2770 ac3e 41d2 3cbe
000001f0: 63ae f73e 2fba b8be 096b 7e3e b2c0 f9be
00000200: 3aa7 e73e 593c b0be c683 b93e 1118 7ebd
00000210: b99c 8a3d ea17 9abe 47c6 1a3f cb0b bf3e
00000220: 5b6e 413c 347a ddbe f14d 14bf 6d6a 96bd
00000230: e755 a5be cef3 9cbe 18fc 2abe 65c3 0a3e
00000240: 4ec0 913e 785a 29be d8a6 a53e 964a 05be
00000250: ebdd 7ebe bbab 843e 7e3d 23bf 91d7 cfbe
00000260: 816e d43d ca14 993e 5e5a 1d3f cb98 4ebc
00000270: d548 a2be a693 803d db01 32bf 063a 07bf
00000280: 7b21 113e 540f d43d 7001 a13e 526b f83e
00000290: 53f2 9a3e adc8 b33e a704 f3be 57d9 5ebd
000002a0: ba61 573e 9616 a1bd 42be f4ba 3d6f e53e
000002b0: fe40 b53e 102a 8c3d 00a3 263d a748 0bbf
000002c0: b61d ffbe 827f b63e c503 d63e 1358 c53e
000002d0: 45f6 57be f97b f2be 1d72 05bf cac1 cabe
000002e0: 1558 be3e b3c7 82be b96f e3bb 385c ee3e
000002f0: ec34 b63d fb2d 2a3e 254a 083f 7450 bbbe
00000300: 6032 2bbe 9f08 d53e e08c e93e 536f 6dbe
00000310: 73ca 653d cd98 92be 6e5a 1dbe 58f5 183d
00000320: 3f6d 04be f803 083e 83f4 073f 0809 e03e
00000330: 917d 463e 5c90 9d3e edd0 ba3e e255 1dbe
00000340: cfb4 95be 8b96 9cbe 9812 d03e acac 3cbe
00000350: 1005 c3be aebe 1a3e 0a43 083e 0b99 483e
00000360: 059f b93e bd8e 54bd b1b3 e53e edba 953d
00000370: a9bb dc3c a117 5d3e 0ab7 8f3e 82f3 dc3e
00000380: 9edc 17bf d2d8 803d 1bb4 093d 66f8 17be
00000390: 7777 d7be 82d5 9e3e 635d 003f e22c f03e
000003a0: 318f a1be f06c 563d 53cf 313f 4e0a 8cbe
000003b0: 8107 05bf b583 bc3d 80a8 c23c 265d 583e
000003c0: 5c94 7d3d 72de 3e3e 115e a53e 4d60 85be
000003d0: 11d4 17be e585 ee3e 401e 063e 331b ea3e
000003e0: 0843 f83e 1d91 1b3d bd6d 0c3f af54 7ebe
000003f0: ee19 a7be fe9c 8abe 15dd 4f3e 54db fc3e

fc1.bias f4 [400]
-0.39475507 -0.2237662 0.03460689 -0.31938753 0.40238637 0.05284713 0.2759159 -0.49561375
0.30739176 -0.09646581 -0.40651792 -0.17058963 0.1796316 0.1898252 -0.21443142 -0.021769814
-0.10896013 0.5752268 -0.14173785 0.5196227 -0.037095673 -0.2745794 0.5458039 0.03676634
-0.3170916 -0.27628168 -0.16554739 0.44818017 -0.31028053 -0.07459416 0.0053915596 -0.25707677
0.15448925 0.25384498 -0.08831886 0.28417683 -0.060839824 0.13539888 0.32719305 -0.3689106
-0.13337995 0.2902408 -0.40351155 -0.14674865 -0.251283 0.21425502 -0.4630811 -0.094923556
-0.2894362 0.115969114 -0.30806977 0.09321617 0.3129942 0.23718645 -0.56786036 0.5643489
0.14986034 -0.32964823 0.12753825 -0.10661122 0.4567439 0.30931678 -0.06505706 -0.08551873
-0.1467504 0.25735044 -0.26815656 0.02019485 -0.37473843 0.10853174 -0.17909887 0.2866208
0.19595648 -0.46654332 0.06823445 -0.07109838 -0.06638145 0.2791347 -0.29945222 -0.03442796
0.34441355 -0.45487937 0.029535335 0.07204291 -0.176748 -0.39174214 0.15204158 0.1683757
-0.114952154 0.25445297 -0.18782903 -0.33187884 0.3133312 0.41513416 -0.29475275 -0.20969783
0.11046432 0.19314176 0.5036007 -0.25090224 0.3923461 0.5302936 -0.057312384 0.15316887
-0.5321372 -0.05280915 0.36210454 -0.18457486 -0.2996286 0.06527706 -0.032017138 -0.49564534
-0.52735114 0.46770275 -0.14068799 -0.46663505 0.4029147 -0.068547994 0.19279383 -0.0007197272
-0.02093209 -0.47009847 -0.1850634 0.5083365 -0.005462886 -0.25072855 0.3778828 0.19516644
0.33752695 0.4585018 0.40588698 0.55221355 0.19208534 0.20862485 -0.5103131 0.3034778
0.30392063 0.24899122 -0.25843573 0.1538236 -0.26541293 0.33099398 -0.40379384 -0.029937444
0.3234747 -0.45996135 0.24298097 0.1309423 -0.27405882 -0.18908326 -0.47795784 -0.32596976
-0.24140312 -0.29636645 -0.061767653 0.20185244 -0.25843486 0.4541251 0.43437955 0.4261671
-0.22682041 0.04380878 -0.31946293 0.24655764 -0.04892839 0.2632422 -0.36701348 -0.27445352
0.121578835 -0.10358726 0.13670693 0.37073353 -0.30479223 0.22754276 -0.0069011394 -0.10634999
0.17253104 -0.245945 0.3753414 0.17306408 0.37448838 -0.48390076 -0.4139333 -0.37667757
0.3692327 -0.33668423 -0.35815036 -0.034406558 0.23527335 -0.3360311 0.02882417 0.6024994
0.044292826 0.0074421456 0.35696626 -0.4301711 0.21162741 0.21040206 0.54232377 -0.15156966
0.18542156 -0.3096138 0.05025166 -0.26691473 -0.47327054 -0.24689277 -0.07241985 -0.21377423
-0.26668254 0.47833875 -0.11239292 -0.29944897 0.12593079 0.4277864 -0.26774436 0.35582286
0.25682425 -0.3387543 -0.44971943 0.20577836 0.51718235 -0.10396359 -0.4821558 0.49738365
0.066021025 -0.35221276 0.117315866 0.0410837 0.362781 0.09752848 0.11972825 -0.25076368
-0.31892258 -0.052619573 -0.27471015 -0.071246386 -0.22106135 0.14148189 -0.28820142 0.13243106
-0.085821316 0.49706012 -0.38989735 0.41007733 0.29011995 0.3521729 0.022520639 -0.3608107
-0.28859192 -0.41980445 0.47877637 0.44058958 0.4106655 -0.31832346 0.40654874 0.50543207
00000000: 561d cabe f722 65be f4bf 0d3d c386 a3be
00000010: 9605 ce3e 3b76 583d d944 8d3e 16c1 fdbe
00000020: 7462 9d3e de8f c5bd 1e23 d0be 0caf 2ebe
00000030: 59f1 373e 8a61 423e e993 5bbe 9c56 b2bc
00000040: 7d26 dfbd 1042 133f ba23 11be fe05 053f
00000050: a2f1 17bd ac95 8cbe ceb9 0b3f 4d98 163d
00000060: d559 a2be cb74 8dbe 4185 29be df77 e53e
00000070: 17dd 9ebe d3c4 98bd aeab b03b 919f 83be
00000080: 6e32 1e3e f8f7 813e 85e0 b4bd a07f 913e
00000090: 2e33 79bd 01a6 0a3e d985 a73e dae1 bcbe
000000a0: c194 08be 719a 943e 1199 cebe 4745 16be
000000b0: 2aa8 80be ab65 5b3e f718 edbe 4867 c2bd
000000c0: fb30 94be 3781 ed3d 52bb 9dbe 1fe8 be3d
000000d0: c740 a03e 01e1 723e 4c5f 11bf 2b79 103f
000000e0: fd74 193e a7c7 a8be 6399 023e fc56 dabd
000000f0: 56da e93e c55e 9e3e a33c 85bd 7224 afbd
00000100: bd45 16be 70c3 833e d14b 89be ac6f a53c
00000110: b7dd bfbe e445 de3d b265 37be f6bf 923e
00000120: d1a8 483e c4de eebe 81be 8b3d 079c 91bd
00000130: fff2 87bd beea 8e3e cd51 99be 5504 0dbd
00000140: f956 b03e f3e5 e8be 16f4 f13c 3c8b 933d
00000150: 6dfd 34be 6d92 c8be cab0 1b3e ae6a 2c3e
00000160: 096c ebbd a947 823e 4156 40be 06ec a9be
00000170: f26c a03e 778c d43e d5e9 96be 07bb 56be
00000180: 1e3b e23d f4c6 453e faeb 003f 4276 80be
00000190: 97e1 c83e 52c1 073f 64c0 6abd 4dd8 1c3e
000001a0: 253a 08bf 684e 58bd c465 b93e 3101 3dbe
000001b0: eb68 99be fbaf 853d 6724 03bd 3ac5 fdbe
000001c0: 7c00 07bf bc76 ef3e 8310 10be caea eebe
000001d0: d64a ce3e e462 8cbd bf6b 453e 13ac 3cba
000001e0: c679 abbc bfb0 f0be 4381 3dbe 5722 023f
000001f0: 0202 b3bb 7e5f 80be db79 c13e b6d9 473e
00000200: 55d0 ac3e bfc0 ea3e 6bd0 cf3e de5d 0d3f
00000210: 05b2 443e c1a1 553e e1a3 02bf 7161 9b3e
00000220: 7c9b 9b3e 8ef7 7e3e b051 84be ef83 1d3e
00000230: 34e4 87be 0b78 a93e 11be cebe 5f3f f5bc
00000240: 7a9e a53e 0e80 ebbe 01d0 783e bd15 063e
00000250: 7051 8cbe 0b9f 41be e4b6 f4be 82e5 a6be
00000260: 6132 77be 58bd 97be 1400 7dbd 68b2 4e3e
00000270: 9351 84be 1683 e83e ff66 de3e 9332 da3e
00000280: 9c43 68be d670 333d a590 a3be 9b79 7c3e
00000290: 2369 48bd aec7 863e 31e9 bbbe 2c85 8cbe
000002a0: 53fe f83d 8f25 d4bd e7fc 0b3e c9d0 bd3e
000002b0: ba0d 9cbe f800 693e f422 e2bb 06ce d9bd
000002c0: faab 303e 02d9 7bbe bf2c c03e b637 313e
000002d0: f1bc bf3e d7c1 f7be 11ef d3be e2db c0be
000002e0: 120c bd3e e061 acbe 7c5f b7be e4ed 0cbd
000002f0: 7feb 703e 450c acbe aa20 ec3c 673d 1a3f
00000300: 656c 353d 3edd f33b 48c4 b63e 633f dcbe
00000310: dbb4 583e a373 573e bbd5 0a3f 1435 1bbe
00000320: 26df 3d3e b385 9ebe afd4 4d3d 0ca9 88be
00000330: 8450 f2be 75d1 7cbe dc50 94bd a2e7 5abe
00000340: 9d8a 88be d1e8 f43e 422e e6bd 6051 99be
00000350: 00f4 003e d206 db3e ca15 89be 6a2e b63e
00000360: 787e 833e 3471 adbe a041 e6be 90b7 523e
00000370: 1066 043f ddea d4bd 20dd f6be 12a9 fe3e
00000380: 0836 873d 3b55 b4be 4d43 f03d 6247 283d
00000390: 6ebe b93e 03bd c73d 1634 f53d 1964 80be
000003a0: d249 a3be 9f87 57bd cfa6 8cbe a0e9 91bd
000003b0: e85d 62be a1e0 103e 238f 93be 029c 073e
000003c0: 16c3 afbd aa7e fe3e a0a0 c7be a8f5 d13e
000003d0: 9a8a 943e 0250 b43e 347d b83c 2ebc b8be
000003e0: 52c2 93be 9cf0 d6be 2d22 f53e f594 e13e
000003f0: c042 d23e 4bfb a2be 2827 d03e ff63 013f

fc2.weight f4 [400, 400]
-0.0489791 -0.2564846 0.03253813 -0.064092614 -0.0032321408 -0.014653075 -0.0027659354 -0.03389183
-0.010707103 0.079164386 0.031579103 0.02004232 -0.013109897 -0.012202422 -0.04295377 -0.042162612
-0.1331999 0.012381132 -0.14723319 0.012466181 -0.035448067 0.037398886 -0.021326995 -0.030791478
-0.03107678 0.0019784067 -0.017232576 -0.035206314 -0.10753072 -0.0106590185 0.017296676 -0.14236717
-0.00049250387 -0.028586922 0.07335024 0.030000836 -0.116847165 0.013713735 0.029756231 -0.0994331
0.009204474 -0.034950066 0.027793864 -0.058146156 -0.11338827 0.0124470545 0.056134116 -0.036310118
0.07459644 0.035036806 -0.08266114 -0.031098466 0.04838847 0.025612187 -0.002691021 0.013748628
0.033893812 -0.10556028 0.05469288 -0.056056295 0.042701922 -0.061063923 -0.032499593 -0.031090006
0.045347266 0.05276088 -0.048446298 0.02118264 -0.0835054 0.023559224 -0.092418686 0.04448215
0.047869038 -0.01188379 0.05117281 -0.22154327 -0.05306748 0.045952164 -0.15941177 -0.025306249
-0.013268673 -0.0084233405 0.06924688 -0.0018748078 0.023166386 -0.0039721983 0.037940297 -0.05761352
-0.044133883 -0.020209132 0.008953462 -0.04786728 0.043263588 0.03613128 -0.16583101 -0.08166569
0.07460366 0.012691378 0.07491654 -0.08300485 -0.03559539 0.06250085 -0.08678267 -0.06541588
-0.00056604296 -0.070909925 0.040054593 -0.0025484157 -0.11576245 -0.0590529 0.09880567 -0.042539302
0.05739304 0.06253135 0.33692873 -0.01084164 0.072429106 0.01816938 -0.049318336 0.016061904
0.04767226 -0.12797028 -0.1055941 -0.025357025 -0.055547215 0.037390135 0.045835767 0.0041303663
-0.035280775 -0.011244377 -0.009320848 0.008918956 -0.015856443 0.0210255 -0.058405057 0.03225452
-0.010213265 0.048382286 -0.030436488 0.03727603 -0.07464598 0.04419024 0.007654151 0.04169833
-0.012679938 -0.017350242 0.066385396 -0.015121649 -0.030168422 -0.103275344 -0.031978257 -0.12825455
-0.17434238 -0.07570699 0.008123161 -0.019950703 -0.014941832 0.012804362 0.06313579 0.0710082
-0.21689436 0.00433556 -0.074983574 -0.02642701 0.033736836 0.021077093 -0.030215079 -0.04813107
-0.054927293 -0.032091875 0.05621171 0.0320876 -0.11074356 0.08201063 0.11732827 -0.055750433
-0.0052803624 0.012810733 0.016393794 -0.01898361 0.014327388 0.009858634 -0.23411417 -0.03399027
-0.04311098 -0.13992994 0.03928257 0.10726502 0.08249187 -0.06538016 -0.025927411 0.027171567
0.0368732 -0.03311949 0.020200608 -0.11603857 -0.009708056 0.039829124 -0.014932363 -0.07793655
0.0625625 -0.031154884 -0.0118405735 -0.11519193 0.0055421772 -0.05095564 0.02962887 -0.022360494
-0.14028436 0.08648241 0.0050417967 0.15204851 0.04253583 0.018201068 -0.10447098 0.040744647
0.045210067 0.01594475 0.041533764 -0.019892512 0.05109155 0.15025516 0.018922878 0.07867984
0.0015694915 0.03966377 -0.07532568 0.01621549 0.01208747 0.02523793 -0.057505038 0.01813864
-0.044337455 -0.03677239 -0.15732382 0.005685848 -0.08314516 0.11379841 0.013733954 0.010918468
-0.088122 -0.011600519 0.045511454 -0.006732882 -0.020455336 0.050039165 -0.07022328 -0.09365764
0.011668293 0.013481212 0.025488479 0.009950894 0.008325006 0.02276721 0.00073564966 -0.017990923
00000000: 4f9e 48bd f351 83be b446 053d fd42 83bd
00000010: 53d2 53bb 7313 70bc b244 35bb 29d2 0abd
00000020: d86c 2fbc f020 a23d 1759 013d cb2f a43c
00000030: e5ca 56bc abec 47bc 4bf0 2fbd b4b2 2cbd
00000040: 8e65 08be 3bda 4a3c 4cc4 16be f43e 4c3c
00000050: fe31 11bd 932f 193d f3b5 aebc 693e fcbc
00000060: bb94 febc 28a8 013b 552b 8dbc 7f34 10bd
00000070: 1139 dcbd 2aa3 2ebc c2b1 8d3c b3c8 11be
00000080: 601b 01ba 1f2f eabc a738 963d 50c4 f53c
00000090: 914d efbd 93af 603c 57c3 f33c 95a3 cbbd
000000a0: 5dce 163c cd27 0fbd f5af e33c aa2a 6ebd
000000b0: 1c38 e8bd bbee 4b3c e3ec 653d ebb9 14bd
000000c0: 05c6 983d c182 0f3d 3e4a a9bd 36c2 febc
000000d0: fd32 463d a6d0 d13c d75b 30bb ed41 613c
000000e0: 3dd4 0a3d fd2f d8bd a405 603d 499b 65bd
000000f0: 36e8 2e3d 2a1e 7abd 4b1e 05bd 78b0 febc
00000100: 0ebe 393d cb1b 583d a06f 46bd 3787 ad3c
00000110: e104 abbd 46ff c03c 0246 bdbd ea32 363d
00000120: 5312 443d 3ab4 42bc 959a 513d 3ddc 62be
00000130: 495d 59bd 5638 3c3d d73c 23be 0d4f cfbc
00000140: d964 59bc 0d02 0abc 4fd1 8d3d 1cbc f5ba
00000150: 6fc7 bd3c 3729 82bb 4967 1b3d 28fc 6bbd
00000160: bbc5 34bd 9f8d a5bc 8bb1 123c 7b10 44bd
00000170: 2935 313d 65fe 133d 9bcf 29be 5740 a7bd
00000180: cec9 983d 7fef 4f3c d86d 993d 72fe a9bd
00000190: 79cc 11bd 7200 803d 1dbb b1bd c3f8 85bd
000001a0: 8062 14ba 3939 91bd 4910 243d 5203 27bb
000001b0: dd14 edbd 74e1 71bd a15a ca3d b13d 2ebd
000001c0: f714 6b3d 7010 803d ec81 ac3e 22a1 31bc
000001d0: b655 943d f4d7 943c 0602 4abd 4194 833c
000001e0: fd43 433d a40a 03be b841 d8bd 89b9 cfbc
000001f0: 7a85 63bd 6626 193d 49be 3b3d 0658 873b
00000200: 9382 10bd 563a 38bc 78b6 18bc d020 123c
00000210: 5fe5 81bc ab3d ac3c 243a 6fbd 511d 043d
00000220: 8a55 27bc 812c 463d f155 f9bc c0ae 183d
00000230: fedf 98bd d300 353d accf fa3b decb 2a3d
00000240: 84bf 4fbc 1822 8ebc 11f5 873d cbc0 77bc
00000250: c423 f7bc 0682 d3bd a2fb 02bd 2955 03be
00000260: cf86 32be 440c 9bbd 0217 053c a86f a3bc
00000270: 96ce 74bc 63c9 513c 564d 813d bf6c 913d
00000280: 8e19 5ebe 5011 8e3b fd90 99bd 757d d8bc
00000290: a32f 0a3d dea9 ac3c 9d85 f7bc 1625 45bd
000002a0: 71fb 60bd c572 03bd 403e 663d 4a6e 033d
000002b0: 85cd e2bd 30f5 a73d ce49 f03d 915a 64bd
000002c0: e406 adbb 1ce4 513c 474c 863c 8483 9bbc
000002d0: 6cbd 6a3c 1c86 213c a0bb 6fbe 6239 0bbd
000002e0: 2495 30bd cb49 0fbe c3e6 203d c3ad db3d
000002f0: 7ff1 a83d 09e6 85bd b965 d4bc e896 de3c
00000300: 5a08 173d 4da8 07bd bf7b a53c a1a5 edbd
00000310: 8a0e 1fbc dd23 233d dfa6 74bc 339d 9fbd
00000320: c520 803d 8738 ffbc f7fe 41bc bfe9 ebbd
00000330: 279b b53b dcb6 50bd 3eb8 f23c 5b2d b7bc
00000340: b4a6 0fbe b11d b13d a835 a53b 9bb2 1b3e
00000350: 0d3a 2e3d 681a 953c e2f4 d5bd dce3 263d
00000360: 312e 393d 909e 823c 4f1f 2a3d 9ff5 a2bc
00000370: 6045 513d 7ddc 193e 2704 9b3c e522 a13d
00000380: 65b7 cd3a 7a76 223d 5a44 9abd 59d6 843c
00000390: 860a 463c c6bf ce3c 678a 6bbd 7c97 943c
000003a0: 319b 35bd a59e 16bd 7f19 21be 5a50 ba3b
000003b0: 0248 aabd 240f e93d 6104 613c 60e3 323c
000003c0: 4f79 b4bd 1a10 3ebc 386a 3a3d 829f dcbb
000003d0: f391 a7bc def5 4c3d 39d1 8fbd 94cf bfbd
000003e0: 5e2c 3f3c 4de0 5c3c 37cd d03c 1309 233c
000003f0: 9b65 083c 4d82 ba3c 9dd8 403a b361 93bc

fc2.bias f4 [400]
-0.016042855 -0.03309585 0.034577414 -0.041560203 0.076839104 0.052943975 0.034385514 0.07091418
1.1845413e-05 0.04426483 -0.034764897 0.030821064 0.048922554 0.013866271 0.003937906 -0.012786448
0.052809156 0.009245907 0.010749361 0.054612357 -0.038876843 0.021155665 -0.013363195 0.069587015
0.055284612 0.014477127 0.026323687 -0.05056983 0.0062613236 -0.0043032235 0.0130181275 0.0057330853
-0.0053301514 -0.021969857 0.05221856 -0.067983545 -0.003771143 0.023922594 0.031559214 0.056812625
0.07674373 -0.04343841 0.0018103967 -0.008216711 0.017752236 -0.02471372 -0.062154554 -0.016776983
-0.052083407 0.06520021 0.041365337 -0.03332937 0.024240946 0.064495236 -0.054005582 -0.054538786
0.040895168 0.065992914 0.05022379 0.0038779336 -0.052071903 0.006471345 -0.0030083912 -0.014722166
0.06357887 0.0017403 0.014506377 0.014334414 0.025228532 -0.046385624 0.0171008 0.056396764
-0.0084987655 0.08946635 0.08510579 0.030414732 0.025308937 -0.008485316 0.07841503 0.07592944
0.043057088 -0.013454721 0.04699588 0.02404244 0.056540128 0.0025438142 0.07184134 0.016937401
0.035461176 0.06580994 0.070959546 0.042724017 -0.013439439 -0.012563457 0.07554531 0.019262753
-0.0013928844 0.078597896 -0.040357005 -0.03687918 0.033980627 0.001997698 0.03656239 -0.040662117
-0.0005970672 0.013672488 0.034525078 0.033631817 0.088150874 0.018918136 0.0031254797 -0.047138784
0.07314179 0.010499562 0.00833965 0.056880526 0.08948329 -0.04367125 -0.042918414 0.07793957
0.02736094 0.0025719064 -0.0019025088 0.05786194 -0.040970575 0.06275975 0.027137026 -0.01530824
-0.009798753 -0.013348352 0.06838092 0.017185792 0.0829932 0.014934749 0.032633364 0.024563842
0.025198597 -0.011771511 0.029925395 -0.03727661 0.091114745 -0.026858581 0.013909731 0.09384173
0.06996379 0.020900005 0.053517934 0.04773291 -0.011440528 -0.051514115 -0.011968339 0.05550569
-0.04951475 -0.01217823 -0.026107075 -0.048124887 -0.039382525 0.047869403 0.07040206 0.05404012
0.008440166 0.012937495 0.014609682 -0.0018311461 0.042717364 0.08415521 -0.0077982466 -0.03280443
0.09044004 -0.010701996 0.045229886 0.039746862 0.03083488 -0.027396062 0.03591961 0.07282443
0.030932968 0.066224866 0.055266064 0.025488675 0.06790661 -0.0053136395 0.06291836 0.05267682
0.014839908 -0.041143544 0.08017061 0.04578377 0.02645504 0.041153874 0.02783755 -0.034116186
-0.026315441 0.035415106 -0.016644249 0.021621741 0.025661403 0.009952587 -0.0466916 0.10133075
-0.0019288829 -0.045722555 -0.0042450964 -0.029467355 0.047600456 -0.04145691 0.002269151 0.062288422
0.061598886 0.07948521 -0.003755571 0.01808944 0.002562296 0.01575988 -0.0037917052 -0.03892917
0.01076735 0.07255519 -0.02612595 -0.015409989 0.01161049 -0.03207164 0.034848522 -0.03544784
0.0622894 -0.06947708 0.06495509 0.007271863 -0.0038394416 0.012767091 0.038034167 0.05901396
-0.007548426 0.07007668 0.029115686 -0.004316828 0.0059929416 0.005014034 0.018663364 0.04936777
-0.048090313 0.029357994 0.0036342035 -0.02561272 -0.03161258 0.07075138 0.025349988 -0.051007926
0.07897652 0.049546767 0.06519092 -0.01989647 0.057704877 -0.00090793136 -0.013137762 0.0029053257
00000000: 4e6c 83bc 848f 07bd 0ca1 0d3d 083b 2abd
00000010: d25d 9d3d c8db 583d d3d7 0c3d 743b 913d
00000020: a9bb 4637 0a4f 353d a365 0ebd 757c fc3c
00000030: 0463 483d 5b2f 633c 8d09 813b 407e 51bc
00000040: 6a4e 583d 257c 173c 161e 303c 35b1 5f3d
00000050: 533d 1fbd a54e ad3c 4df1 5abc a383 8e3d
00000060: 1e72 623d 7931 6d3c c6a4 d73c 4f22 4fbd
00000070: ca2b cd3b 0e02 8dbb fc49 553c 9bdc bb3b
00000080: 8da8 aebb 21fa b3bc 21e3 553d f53a 8bbd
00000090: 4825 77bb 51f9 c33c 3c44 013d 5bb4 683d
000000a0: d12b 9d3d 79ec 31bd d54a ed3a 629f 06bc
000000b0: 236d 913c 6d74 cabc c695 7ebd e26f 89bc
000000c0: 6955 55bd b087 853d b36e 293d 6184 08bd
000000d0: f394 c63c 1416 843d f534 5dbd 1064 5fbd
000000e0: b181 273d 4b27 873d 76b7 4d3d ee24 7e3b
000000f0: 5949 55bd 940d d43b 6e28 45bb 3d35 71bc
00000100: a335 823d c71a e43a 28ac 6d3c e4da 6a3c
00000110: 11ac ce3c dafe 3dbd fa16 8c3c 4b00 673d
00000120: 683e 0bbc 223a b73d f24b ae3d 5128 f93c
00000130: b054 cf3c ff05 0bbc 0f98 a03d e580 9b3d
00000140: a15c 303d 3171 5cbc c07e 403d a7f4 c43c
00000150: 9f96 673d 1fb6 263b 8d21 933d 4ec0 8a3c
00000160: bd3f 113d 5dc7 863d 3d53 913d 61ff 2e3d
00000170: 1831 5cbc f5d6 4dbc 80b7 9a3d eccc 9d3c
00000180: 7291 b6ba eff7 a03d 634d 25bd a00e 17bd
00000190: 452f 0b3d d0eb 023b 72c2 153d 528d 26bd
000001a0: 8084 1cba 9202 603c 2b6a 0d3d 84c1 093d
000001b0: 7288 b43d 35fa 9a3c d9d4 4c3b 9914 41bd
000001c0: 5dcb 953d 5b06 2c3c 07a3 083c 8efb 683d
000001d0: 0443 b73d a0e0 32bd 38cb 2fbd c89e 9f3d
000001e0: 0d24 e03c 6e8d 283b 9a5d f9ba a400 6d3d
000001f0: c3d0 27bd 2f88 803d 784e de3c 6acf 7abc
00000200: f38a 20bc 0cb3 5abc 4c0b 8c3d 38c9 8c3c
00000210: 57f8 a93d e1b0 743c 90aa 053d 1c3a c93c
00000220: 4a6d ce3c 4cdd 40bc 1a26 f53c 5caf 18bd
00000230: 5e9a ba3d 8706 dcbc a4e5 633c 1830 c03d
00000240: 2d49 8f3d 7d36 ab3c 9f35 5b3d 9583 433d
00000250: 0d71 3bbc 7700 53bd da16 44bc ef59 633d
00000260: facf 4abd 3387 47bc 81de d5bc 9a1e 45bd
00000270: 924f 21bd b512 443d f52e 903d 2c59 5d3d
00000280: 9f48 0a3c c9f7 533c 735d 6f3c 1103 f0ba
00000290: 67f8 2e3d 9159 ac3d 6f88 ffbb f05d 06bd
000002a0: a138 b93d 6d57 2fbc f942 393d 9bcd 223d
000002b0: 6e99 fc3c b56d e0bc 7120 133d fa24 953d
000002c0: 2367 fd3c e7a0 873d ab5e 623d a0cd d03c
000002d0: 9f12 8b3d 0a1e aebb 57db 803d a6c3 573d
000002e0: 1623 733c 2286 28bd 7d30 a43d c387 3b3d
000002f0: 3db8 d83c f790 283d 930b e43c 6abd 0bbd
00000300: 7b93 d7bc 6e0f 113d 8559 88bc 1420 b13c
00000310: dd37 d23c 2d10 233c b13f 3fbd 7f86 cf3d
00000320: 92d2 fcba 9347 3bbd 731a 8bbb 8665 f1bc
00000330: b2f8 423d b9ce 29bd 09b6 143b 2522 7f3d
00000340: 1d4f 7c3d 24c9 a23d 0720 76bb 4e30 943c
00000350: 32ec 273b dd1a 813c 427e 78bb 3274 1fbd
00000360: 8a69 303c d197 943d 1706 d6bc 2e7a 7cbc
00000370: ed39 3e3c 8d5d 03bd 53bd 0e3d c131 11bd
00000380: 2b23 7f3d 004a 8ebd 2d07 853d cf48 ee3b
00000390: 249f 7bbb 102d 513c b7c9 1b3d 9fb8 713d
000003a0: c958 f7bb 5d84 8f3d 0584 ee3c 2e74 8dbb
000003b0: 7060 c43b c44c a43b e9e3 983c dc35 4a3d
000003c0: 59fa 44bd 2d80 f03c d12b 6e3b c4d1 d1bc
000003d0: 317c 01bd 19e6 903d c7aa cf3c b0ed 50bd
000003e0: 71be a13d 8df1 4a3d d182 853d ecfd a2bc
000003f0: f35b 6c3d 3e02 6eba c53f 57bc 4767 3e3b

fc3.weight f4 [2, 400]
0.16076866 -0.2526606 0.07062889 -0.035127874 0.06660515 0.07236839 0.10811108 0.112017415
0.08692118 -0.208907 -0.026943771 0.08688292 0.09931901 0.13067874 0.14549242 -0.031767216
0.080574445 0.058122702 -0.043798544 0.07594036 -0.21873736 -0.011767641 0.03480573 0.081842095
0.148214 -0.021062309 0.09421302 -0.045043103 0.07457621 0.07341661 -0.11645371 0.14341028
0.08481618 0.020689929 0.0020486645 -0.21955717 0.033977192 0.050376922 0.06523149 0.073498346
0.12894526 -0.04520882 -0.13502352 -0.09873315 0.07259072 -0.016477112 -0.09908867 -0.0021229386
0.009179341 0.07316622 -0.018412367 -0.015951099 0.04979302 0.14757401 -0.26718056 -0.20151351
-0.0023353067 0.06411995 0.056254487 0.112955354 -0.041459452 0.13221322 -0.036695763 -0.09074621
0.09492489 0.17379953 0.045643717 0.07225705 0.13280842 0.005469379 -0.11572342 0.09341166
0.1613472 0.065518126 0.11162129 0.09244657 0.19420433 -0.0035160722 0.15409186 0.18230271
-0.15188979 -0.047071107 0.12930888 -0.0073523405 0.12042224 -0.014912498 0.06952428 0.015377358
0.09578382 0.11195419 0.1480506 0.0646118 -0.0123024285 -0.008537313 0.08103274 0.012744074
0.049245734 0.083176725 -0.2486652 -0.11840419 -0.26754647 0.04118837 0.065411076 0.03363942
-0.12644245 -0.025439374 -0.0061751367 0.11271286 0.16793066 0.043895196 -0.026175207 0.02204559
0.14025177 0.1138793 -0.16055818 0.0503029 0.14229031 -0.055073343 -0.019615715 0.017740086
0.08011686 0.11833875 0.0054635345 0.10914725 0.060209963 0.1061202 -0.02492163 -0.35373518
-0.17075425 -0.29415798 0.092644945 -0.19709608 0.14028999 -0.19233887 0.10751142 -0.019247819
-0.0739307 0.08758456 0.04018157 -0.018633252 0.07130614 0.046445407 -0.116753936 0.14510693
-0.15471473 0.11862863 -0.17943643 0.10734168 -0.015718896 -0.04342983 -0.11431769 -0.1571344
0.04114314 0.019661212 0.011074543 -0.025129719 -0.047434986 0.113403745 0.062928155 0.07568964
-0.0017954956 0.11759409 -0.024432337 -0.12754542 0.025487328 0.054451834 0.11304823 -0.060482565
0.14037001 0.11570994 0.17381531 -0.21573147 -0.14643711 -0.010275382 0.04072679 0.10938981
-0.03930476 0.07349223 0.12910263 0.13762026 0.11009495 -0.35740992 0.15080704 -0.08484716
0.04166197 -0.011592166 0.08899479 0.11664959 -0.017959053 0.10711191 0.004892416 0.0006752014
-0.042311747 -0.16271594 -0.0347072 -0.17030045 0.0074717584 0.12291793 0.033792324 0.1474509
0.028729165 0.029389543 -0.022578957 -0.048354603 0.11936663 -0.0068525965 -0.02149797 0.13415468
0.1335279 0.100712866 0.11776646 0.10536294 0.08976811 0.047628257 -0.110453926 -0.01986235
-0.093445905 0.11447535 0.122485146 0.005805284 0.13860665 -0.044353247 0.13709572 -0.11842622
0.12280973 -0.24747887 0.08536697 -0.16225307 0.18793263 -0.10926929 0.121480756 -0.031279176
-0.002180161 0.13431364 -0.115428075 0.087596476 0.023595382 0.106748104 0.17327668 -0.1636751
-0.023023348 -0.008232782 -0.03432674 -0.35175097 0.037451807 0.08212671 0.10501902 -0.015058756
0.11724668 -0.15440522 0.11939824 -0.26824448 0.1404856 -0.03063793 -0.014215082 -0.04782343
00000000: 8aa0 243e bb5c 81be e1a5 903d 3fe2 0fbd
00000010: 4868 883d e135 943d 5869 dd3d 6369 e53d
00000020: bb03 b23d b7eb 55be 2fb9 dcbc acef b13d
00000030: c467 cb3d a6d0 053e f7fb 143e 571e 02bd
00000040: 3704 a53d 1212 6e3d 1a66 33bd 9f86 9b3d
00000050: b0fc 5fbe 10cd 40bc 7490 0e3d d49c a73d
00000060: 69c5 173e dd8a acbc c1f2 c03d 1e7f 38bd
00000070: 69bb 983d 735b 963d 487f eebd 25da 123e
00000080: 1bb4 ad3d ed7d a93c e342 063b 98d3 60be
00000090: ab2b 0b3d 0858 4e3d 1698 853d 4d86 963d
000000a0: 3a0a 043e e22c 39bd 9b43 0abe 9b34 cabd
000000b0: 72aa 943d 02fb 86bc 00ef cabd 0021 0bbb
000000c0: f264 163c 2cd8 953d 88d5 96bc e1ab 82bc
000000d0: c4f3 4b3d a41d 173e e4cb 88be 8f59 4ebe
000000e0: f20b 19bb 5251 833d 1b6b 663d 2355 e73d
000000f0: 63d1 29bd e762 073e 4c4e 16bd 26d9 b9bd
00000100: fb67 c23d 81f8 313e e8f4 3a3d 81fb 933d
00000110: eefe 073e 7a38 b33b 6700 edbd 9d4e bf3d
00000120: 3338 253e 5e2e 863d b499 e43d a154 bd3d
00000130: 80dd 463e e76d 66bb 42ca 1d3e 90ad 3a3e
00000140: ff88 1bbe a2cd 40bd 8c69 043e e7eb f0bb
00000150: ef9f f63d 8d53 74bc bf62 8e3d 50f1 7b3c
00000160: 4f2a c43d 3d48 e53d 949a 173e 3153 843d
00000170: 2090 49bc 16e0 0bbc 7ef4 a53d 85cc 503c
00000180: e5b5 493d 8f58 aa3d 17a2 7ebe e57d f2bd
00000190: dafb 88be 23b5 283d 3ef6 853d 7dc9 093d
000001a0: 217a 01be 3c66 d0bc cd58 cabb 00d6 e63d
000001b0: 04f6 2b3e 73cb 333d 636d d6bc f498 b43c
000001c0: 299e 0f3e 8d39 e93d 5d69 24be 6a0a 4e3d
000001d0: 8db4 113e 9694 61bd 23b1 a0bc a853 913c
000001e0: 4f14 a43d 965b f23d 7307 b33b 9888 df3d
000001f0: b99e 763d 8c55 d93d 7228 ccbc c71c b5be
00000200: 34da 2ebe e09b 96be a2bc bd3d 8ed3 49be
00000210: 2ea8 0f3e 7bf4 44be f32e dc3d 9aad 9dbc
00000220: fb68 97bd 895f b33d 6e95 243d c3a4 98bc
00000230: f408 923d 8a3d 3e3d b01c efbd e996 143e
00000240: 8a6d 1ebe 91f3 f23d 2fbe 37be f4d5 db3d
00000250: eac4 80bc 7ae3 31bd 651f eabd d7e7 20be
00000260: b685 283d 8d10 a13c 0072 353c d7dc cdbc
00000270: 304b 42bd 3940 e83d 7ae0 803d 2c03 9b3d
00000280: d656 ebba 2cd5 f03d 5326 c8bc 449b 02be
00000290: cdca d03c e308 5f3d d585 e73d 91bc 77bd
000002a0: 28bd 0f3e 55f9 ec3d a4fc 313e b6e8 5cbe
000002b0: 9cf3 15be 135a 28bc 22d1 263d c407 e03d
000002c0: 07fe 20bd 1883 963d 7b33 043e 53ec 0c3e
000002d0: 7679 e13d 6ffe b6be 296d 1a3e 59c4 adbd
000002e0: bea5 2a3d 11ed 3dbc e742 b63d fbe5 ee3d
000002f0: dd1e 93bc 7d5d db3d 8f50 a03b 0000 313a
00000300: 154f 2dbd 029f 26be 2329 0ebd 3e63 2ebe
00000310: a7d5 f43b 65bc fb3d d269 0a3d 5efd 163e
00000320: 6d59 eb3c 57c2 f03c 81f7 b8bc 7a0f 46bd
00000330: 7e76 f43d bf8b e0bb 831c b0bc d85f 093e
00000340: 8abb 083e 8c42 ce3d 8b2f f13d 86c8 d73d
00000350: 58d8 b73d d915 433d ab35 e2bd 5eb6 a2bc
00000360: 9160 bfbd 0d72 ea3d 7ed9 fa3d 403a be3b
00000370: e7ee 0d3e c0ab 35bd d262 0c3e 7289 f2bd
00000380: ab83 fb3d 1a6b 7dbe e1d4 ae3d ab25 26be
00000390: 6971 403e 94c8 dfbd e7ca f83d 981e 00bd
000003a0: 08e1 0ebb 8489 093e 8e65 ecbd c865 b33d
000003b0: 1a4b c13c c09e da3d 716f 313e 729a 27be
000003c0: 769b bcbc cae2 06bc 329a 0cbd b418 b4be
000003d0: 1167 193d 0c32 a83d 3614 d73d 00b9 76bc
000003e0: 071f f03d 671c 1ebe 1087 f43d 5757 89be
000003f0: 75db 0f3e 65fc fabc 60e6 68bc 80e2 43bd

fc3.bias f4 [2]
-0.015133933 -0.017583884
00000000: 51f4 77bc 140c 90bc
